{"format": "graph-model", "generatedBy": "2.15.0", "convertedBy": "TensorFlow.js Converter v4.20.0", "signature": {"inputs": {"args_0": {"name": "args_0:0", "dtype": "DT_FLOAT", "tensorShape": {"dim": [{"size": "1"}, {"size": "224"}, {"size": "224"}, {"size": "3"}]}}}, "outputs": {"identity_14": {"name": "Identity:0", "dtype": "DT_FLOAT", "tensorShape": {"dim": [{"size": "1"}, {"size": "5"}]}}, "identity_15": {"name": "Identity_1:0", "dtype": "DT_FLOAT", "tensorShape": {"dim": [{"size": "1"}, {"size": "4"}]}}}}, "modelTopology": {"node": [{"name": "StatefulPartitionedCall/model_7/dense_22/MatMul/ReadVariableOp", "op": "Const", "attr": {"value": {"tensor": {"dtype": "DT_FLOAT", "tensorShape": {"dim": [{"size": "128"}, {"size": "5"}]}}}, "dtype": {"type": "DT_FLOAT"}}}, {"name": "StatefulPartitionedCall/model_7/dense_22/BiasAdd/ReadVariableOp", "op": "Const", "attr": {"value": {"tensor": {"dtype": "DT_FLOAT", "tensorShape": {"dim": [{"size": "5"}]}}}, "dtype": {"type": "DT_FLOAT"}}}, {"name": "StatefulPartitionedCall/model_7/zero_padding2d_134/Pad/paddings", "op": "Const", "attr": {"value": {"tensor": {"dtype": "DT_INT32", "tensorShape": {"dim": [{"size": "4"}, {"size": "2"}]}}}, "dtype": {"type": "DT_INT32"}}}, {"name": "StatefulPartitionedCall/model_7/zero_padding2d_135/Pad/paddings", "op": "Const", "attr": {"value": {"tensor": {"dtype": "DT_INT32", "tensorShape": {"dim": [{"size": "4"}, {"size": "2"}]}}}, "dtype": {"type": "DT_INT32"}}}, {"name": "StatefulPartitionedCall/model_7/zero_padding2d_132/Pad/paddings", "op": "Const", "attr": {"value": {"tensor": {"dtype": "DT_INT32", "tensorShape": {"dim": [{"size": "4"}, {"size": "2"}]}}}, "dtype": {"type": "DT_INT32"}}}, {"name": "StatefulPartitionedCall/model_7/zero_padding2d_133/Pad/paddings", "op": "Const", "attr": {"value": {"tensor": {"dtype": "DT_INT32", "tensorShape": {"dim": [{"size": "4"}, {"size": "2"}]}}}, "dtype": {"type": "DT_INT32"}}}, {"name": "StatefulPartitionedCall/model_7/zero_padding2d_130/Pad/paddings", "op": "Const", "attr": {"value": {"tensor": {"dtype": "DT_INT32", "tensorShape": {"dim": [{"size": "4"}, {"size": "2"}]}}}, "dtype": {"type": "DT_INT32"}}}, {"name": "StatefulPartitionedCall/model_7/zero_padding2d_131/Pad/paddings", "op": "Const", "attr": {"value": {"tensor": {"dtype": "DT_INT32", "tensorShape": {"dim": [{"size": "4"}, {"size": "2"}]}}}, "dtype": {"type": "DT_INT32"}}}, {"name": "StatefulPartitionedCall/model_7/zero_padding2d_128/Pad/paddings", "op": "Const", "attr": {"value": {"tensor": {"dtype": "DT_INT32", "tensorShape": {"dim": [{"size": "4"}, {"size": "2"}]}}}, "dtype": {"type": "DT_INT32"}}}, {"name": "StatefulPartitionedCall/model_7/zero_padding2d_129/Pad/paddings", "op": "Const", "attr": {"value": {"tensor": {"dtype": "DT_INT32", "tensorShape": {"dim": [{"size": "4"}, {"size": "2"}]}}}, "dtype": {"type": "DT_INT32"}}}, {"name": "StatefulPartitionedCall/model_7/zero_padding2d_126/Pad/paddings", "op": "Const", "attr": {"value": {"tensor": {"dtype": "DT_INT32", "tensorShape": {"dim": [{"size": "4"}, {"size": "2"}]}}}, "dtype": {"type": "DT_INT32"}}}, {"name": "StatefulPartitionedCall/model_7/zero_padding2d_127/Pad/paddings", "op": "Const", "attr": {"value": {"tensor": {"dtype": "DT_INT32", "tensorShape": {"dim": [{"size": "4"}, {"size": "2"}]}}}, "dtype": {"type": "DT_INT32"}}}, {"name": "StatefulPartitionedCall/model_7/zero_padding2d_124/Pad/paddings", "op": "Const", "attr": {"value": {"tensor": {"dtype": "DT_INT32", "tensorShape": {"dim": [{"size": "4"}, {"size": "2"}]}}}, "dtype": {"type": "DT_INT32"}}}, {"name": "StatefulPartitionedCall/model_7/zero_padding2d_125/Pad/paddings", "op": "Const", "attr": {"value": {"tensor": {"dtype": "DT_INT32", "tensorShape": {"dim": [{"size": "4"}, {"size": "2"}]}}}, "dtype": {"type": "DT_INT32"}}}, {"name": "StatefulPartitionedCall/model_7/zero_padding2d_122/Pad/paddings", "op": "Const", "attr": {"value": {"tensor": {"dtype": "DT_INT32", "tensorShape": {"dim": [{"size": "4"}, {"size": "2"}]}}}, "dtype": {"type": "DT_INT32"}}}, {"name": "StatefulPartitionedCall/model_7/zero_padding2d_123/Pad/paddings", "op": "Const", "attr": {"value": {"tensor": {"dtype": "DT_INT32", "tensorShape": {"dim": [{"size": "4"}, {"size": "2"}]}}}, "dtype": {"type": "DT_INT32"}}}, {"name": "StatefulPartitionedCall/model_7/zero_padding2d_120/Pad/paddings", "op": "Const", "attr": {"value": {"tensor": {"dtype": "DT_INT32", "tensorShape": {"dim": [{"size": "4"}, {"size": "2"}]}}}, "dtype": {"type": "DT_INT32"}}}, {"name": "StatefulPartitionedCall/model_7/zero_padding2d_121/Pad/paddings", "op": "Const", "attr": {"value": {"tensor": {"dtype": "DT_INT32", "tensorShape": {"dim": [{"size": "4"}, {"size": "2"}]}}}, "dtype": {"type": "DT_INT32"}}}, {"name": "StatefulPartitionedCall/model_7/zero_padding2d_119/Pad/paddings", "op": "Const", "attr": {"value": {"tensor": {"dtype": "DT_INT32", "tensorShape": {"dim": [{"size": "4"}, {"size": "2"}]}}}, "dtype": {"type": "DT_INT32"}}}, {"name": "StatefulPartitionedCall/model_7/tf.compat.v1.pad_7/PadV2/paddings", "op": "Const", "attr": {"value": {"tensor": {"dtype": "DT_INT32", "tensorShape": {"dim": [{"size": "4"}, {"size": "2"}]}}}, "dtype": {"type": "DT_INT32"}}}, {"name": "StatefulPartitionedCall/model_7/tf.compat.v1.pad_7/PadV2/constant_values", "op": "Const", "attr": {"value": {"tensor": {"dtype": "DT_FLOAT", "tensorShape": {}}}, "dtype": {"type": "DT_FLOAT"}}}, {"name": "StatefulPartitionedCall/model_7/global_average_pooling2d_39/Mean/reduction_indices", "op": "Const", "attr": {"value": {"tensor": {"dtype": "DT_INT32", "tensorShape": {"dim": [{"size": "2"}]}}}, "dtype": {"type": "DT_INT32"}}}, {"name": "StatefulPartitionedCall/model_7/tf.compat.v1.transpose_7/transpose/perm", "op": "Const", "attr": {"value": {"tensor": {"dtype": "DT_INT32", "tensorShape": {"dim": [{"size": "4"}]}}}, "dtype": {"type": "DT_INT32"}}}, {"name": "StatefulPartitionedCall/model_7/tf.reshape_7/Reshape/shape", "op": "Const", "attr": {"value": {"tensor": {"dtype": "DT_INT32", "tensorShape": {"dim": [{"size": "2"}]}}}, "dtype": {"type": "DT_INT32"}}}, {"name": "StatefulPartitionedCall/model_7/dense_21/MatMul/ReadVariableOp", "op": "Const", "attr": {"value": {"tensor": {"dtype": "DT_FLOAT", "tensorShape": {"dim": [{"size": "512"}, {"size": "128"}]}}}, "dtype": {"type": "DT_FLOAT"}}}, {"name": "StatefulPartitionedCall/model_7/dense_21/BiasAdd/ReadVariableOp", "op": "Const", "attr": {"value": {"tensor": {"dtype": "DT_FLOAT", "tensorShape": {"dim": [{"size": "128"}]}}}, "dtype": {"type": "DT_FLOAT"}}}, {"name": "StatefulPartitionedCall/model_7/dense_23/MatMul/ReadVariableOp", "op": "Const", "attr": {"value": {"tensor": {"dtype": "DT_FLOAT", "tensorShape": {"dim": [{"size": "128"}, {"size": "4"}]}}}, "dtype": {"type": "DT_FLOAT"}}}, {"name": "StatefulPartitionedCall/model_7/dense_23/BiasAdd/ReadVariableOp", "op": "Const", "attr": {"value": {"tensor": {"dtype": "DT_FLOAT", "tensorShape": {"dim": [{"size": "4"}]}}}, "dtype": {"type": "DT_FLOAT"}}}, {"name": "args_0", "op": "Placeholder", "attr": {"shape": {"shape": {"dim": [{"size": "1"}, {"size": "224"}, {"size": "224"}, {"size": "3"}]}}, "dtype": {"type": "DT_FLOAT"}}}, {"name": "StatefulPartitionedCall/model_7/conv2d_140/Conv2D_weights", "op": "Const", "attr": {"value": {"tensor": {"dtype": "DT_FLOAT", "tensorShape": {"dim": [{"size": "7"}, {"size": "7"}, {"size": "3"}, {"size": "64"}]}}}, "dtype": {"type": "DT_FLOAT"}}}, {"name": "StatefulPartitionedCall/model_7/conv2d_140/Conv2D_bn_offset", "op": "Const", "attr": {"value": {"tensor": {"dtype": "DT_FLOAT", "tensorShape": {"dim": [{"size": "64"}]}}}, "dtype": {"type": "DT_FLOAT"}}}, {"name": "StatefulPartitionedCall/model_7/conv2d_141/Conv2D_weights", "op": "Const", "attr": {"value": {"tensor": {"dtype": "DT_FLOAT", "tensorShape": {"dim": [{"size": "3"}, {"size": "3"}, {"size": "64"}, {"size": "64"}]}}}, "dtype": {"type": "DT_FLOAT"}}}, {"name": "StatefulPartitionedCall/model_7/conv2d_156/Conv2D_weights", "op": "Const", "attr": {"value": {"tensor": {"dtype": "DT_FLOAT", "tensorShape": {"dim": [{"size": "3"}, {"size": "3"}, {"size": "512"}, {"size": "512"}]}}}, "dtype": {"type": "DT_FLOAT"}}}, {"name": "StatefulPartitionedCall/model_7/conv2d_141/Conv2D_bn_offset", "op": "Const", "attr": {"value": {"tensor": {"dtype": "DT_FLOAT", "tensorShape": {"dim": [{"size": "64"}]}}}, "dtype": {"type": "DT_FLOAT"}}}, {"name": "StatefulPartitionedCall/model_7/conv2d_142/Conv2D_weights", "op": "Const", "attr": {"value": {"tensor": {"dtype": "DT_FLOAT", "tensorShape": {"dim": [{"size": "3"}, {"size": "3"}, {"size": "64"}, {"size": "64"}]}}}, "dtype": {"type": "DT_FLOAT"}}}, {"name": "StatefulPartitionedCall/model_7/conv2d_156/Conv2D_bn_offset", "op": "Const", "attr": {"value": {"tensor": {"dtype": "DT_FLOAT", "tensorShape": {"dim": [{"size": "512"}]}}}, "dtype": {"type": "DT_FLOAT"}}}, {"name": "StatefulPartitionedCall/model_7/conv2d_142/Conv2D_bn_offset", "op": "Const", "attr": {"value": {"tensor": {"dtype": "DT_FLOAT", "tensorShape": {"dim": [{"size": "64"}]}}}, "dtype": {"type": "DT_FLOAT"}}}, {"name": "StatefulPartitionedCall/model_7/conv2d_143/Conv2D_weights", "op": "Const", "attr": {"value": {"tensor": {"dtype": "DT_FLOAT", "tensorShape": {"dim": [{"size": "3"}, {"size": "3"}, {"size": "64"}, {"size": "64"}]}}}, "dtype": {"type": "DT_FLOAT"}}}, {"name": "StatefulPartitionedCall/model_7/conv2d_143/Conv2D_bn_offset", "op": "Const", "attr": {"value": {"tensor": {"dtype": "DT_FLOAT", "tensorShape": {"dim": [{"size": "64"}]}}}, "dtype": {"type": "DT_FLOAT"}}}, {"name": "StatefulPartitionedCall/model_7/conv2d_144/Conv2D_weights", "op": "Const", "attr": {"value": {"tensor": {"dtype": "DT_FLOAT", "tensorShape": {"dim": [{"size": "3"}, {"size": "3"}, {"size": "64"}, {"size": "64"}]}}}, "dtype": {"type": "DT_FLOAT"}}}, {"name": "StatefulPartitionedCall/model_7/conv2d_144/Conv2D_bn_offset", "op": "Const", "attr": {"value": {"tensor": {"dtype": "DT_FLOAT", "tensorShape": {"dim": [{"size": "64"}]}}}, "dtype": {"type": "DT_FLOAT"}}}, {"name": "StatefulPartitionedCall/model_7/conv2d_147/Conv2D_weights", "op": "Const", "attr": {"value": {"tensor": {"dtype": "DT_FLOAT", "tensorShape": {"dim": [{"size": "1"}, {"size": "1"}, {"size": "64"}, {"size": "128"}]}}}, "dtype": {"type": "DT_FLOAT"}}}, {"name": "StatefulPartitionedCall/model_7/conv2d_147/Conv2D_bn_offset", "op": "Const", "attr": {"value": {"tensor": {"dtype": "DT_FLOAT", "tensorShape": {"dim": [{"size": "128"}]}}}, "dtype": {"type": "DT_FLOAT"}}}, {"name": "StatefulPartitionedCall/model_7/conv2d_145/Conv2D_weights", "op": "Const", "attr": {"value": {"tensor": {"dtype": "DT_FLOAT", "tensorShape": {"dim": [{"size": "3"}, {"size": "3"}, {"size": "64"}, {"size": "128"}]}}}, "dtype": {"type": "DT_FLOAT"}}}, {"name": "StatefulPartitionedCall/model_7/conv2d_158/Conv2D_weights", "op": "Const", "attr": {"value": {"tensor": {"dtype": "DT_FLOAT", "tensorShape": {"dim": [{"size": "3"}, {"size": "3"}, {"size": "512"}, {"size": "512"}]}}}, "dtype": {"type": "DT_FLOAT"}}}, {"name": "StatefulPartitionedCall/model_7/conv2d_145/Conv2D_bn_offset", "op": "Const", "attr": {"value": {"tensor": {"dtype": "DT_FLOAT", "tensorShape": {"dim": [{"size": "128"}]}}}, "dtype": {"type": "DT_FLOAT"}}}, {"name": "StatefulPartitionedCall/model_7/conv2d_146/Conv2D_weights", "op": "Const", "attr": {"value": {"tensor": {"dtype": "DT_FLOAT", "tensorShape": {"dim": [{"size": "3"}, {"size": "3"}, {"size": "128"}, {"size": "128"}]}}}, "dtype": {"type": "DT_FLOAT"}}}, {"name": "StatefulPartitionedCall/model_7/conv2d_158/Conv2D_bn_offset", "op": "Const", "attr": {"value": {"tensor": {"dtype": "DT_FLOAT", "tensorShape": {"dim": [{"size": "512"}]}}}, "dtype": {"type": "DT_FLOAT"}}}, {"name": "StatefulPartitionedCall/model_7/conv2d_146/Conv2D_bn_offset", "op": "Const", "attr": {"value": {"tensor": {"dtype": "DT_FLOAT", "tensorShape": {"dim": [{"size": "128"}]}}}, "dtype": {"type": "DT_FLOAT"}}}, {"name": "StatefulPartitionedCall/model_7/conv2d_148/Conv2D_weights", "op": "Const", "attr": {"value": {"tensor": {"dtype": "DT_FLOAT", "tensorShape": {"dim": [{"size": "3"}, {"size": "3"}, {"size": "128"}, {"size": "128"}]}}}, "dtype": {"type": "DT_FLOAT"}}}, {"name": "StatefulPartitionedCall/model_7/conv2d_148/Conv2D_bn_offset", "op": "Const", "attr": {"value": {"tensor": {"dtype": "DT_FLOAT", "tensorShape": {"dim": [{"size": "128"}]}}}, "dtype": {"type": "DT_FLOAT"}}}, {"name": "StatefulPartitionedCall/model_7/conv2d_149/Conv2D_weights", "op": "Const", "attr": {"value": {"tensor": {"dtype": "DT_FLOAT", "tensorShape": {"dim": [{"size": "3"}, {"size": "3"}, {"size": "128"}, {"size": "128"}]}}}, "dtype": {"type": "DT_FLOAT"}}}, {"name": "StatefulPartitionedCall/model_7/conv2d_149/Conv2D_bn_offset", "op": "Const", "attr": {"value": {"tensor": {"dtype": "DT_FLOAT", "tensorShape": {"dim": [{"size": "128"}]}}}, "dtype": {"type": "DT_FLOAT"}}}, {"name": "StatefulPartitionedCall/model_7/conv2d_152/Conv2D_weights", "op": "Const", "attr": {"value": {"tensor": {"dtype": "DT_FLOAT", "tensorShape": {"dim": [{"size": "1"}, {"size": "1"}, {"size": "128"}, {"size": "256"}]}}}, "dtype": {"type": "DT_FLOAT"}}}, {"name": "StatefulPartitionedCall/model_7/conv2d_159/Conv2D_weights", "op": "Const", "attr": {"value": {"tensor": {"dtype": "DT_FLOAT", "tensorShape": {"dim": [{"size": "3"}, {"size": "3"}, {"size": "512"}, {"size": "512"}]}}}, "dtype": {"type": "DT_FLOAT"}}}, {"name": "StatefulPartitionedCall/model_7/conv2d_152/Conv2D_bn_offset", "op": "Const", "attr": {"value": {"tensor": {"dtype": "DT_FLOAT", "tensorShape": {"dim": [{"size": "256"}]}}}, "dtype": {"type": "DT_FLOAT"}}}, {"name": "StatefulPartitionedCall/model_7/conv2d_150/Conv2D_weights", "op": "Const", "attr": {"value": {"tensor": {"dtype": "DT_FLOAT", "tensorShape": {"dim": [{"size": "3"}, {"size": "3"}, {"size": "128"}, {"size": "256"}]}}}, "dtype": {"type": "DT_FLOAT"}}}, {"name": "StatefulPartitionedCall/model_7/conv2d_150/Conv2D_bn_offset", "op": "Const", "attr": {"value": {"tensor": {"dtype": "DT_FLOAT", "tensorShape": {"dim": [{"size": "256"}]}}}, "dtype": {"type": "DT_FLOAT"}}}, {"name": "StatefulPartitionedCall/model_7/conv2d_159/Conv2D_bn_offset", "op": "Const", "attr": {"value": {"tensor": {"dtype": "DT_FLOAT", "tensorShape": {"dim": [{"size": "512"}]}}}, "dtype": {"type": "DT_FLOAT"}}}, {"name": "StatefulPartitionedCall/model_7/conv2d_151/Conv2D_weights", "op": "Const", "attr": {"value": {"tensor": {"dtype": "DT_FLOAT", "tensorShape": {"dim": [{"size": "3"}, {"size": "3"}, {"size": "256"}, {"size": "256"}]}}}, "dtype": {"type": "DT_FLOAT"}}}, {"name": "StatefulPartitionedCall/model_7/conv2d_151/Conv2D_bn_offset", "op": "Const", "attr": {"value": {"tensor": {"dtype": "DT_FLOAT", "tensorShape": {"dim": [{"size": "256"}]}}}, "dtype": {"type": "DT_FLOAT"}}}, {"name": "StatefulPartitionedCall/model_7/conv2d_153/Conv2D_weights", "op": "Const", "attr": {"value": {"tensor": {"dtype": "DT_FLOAT", "tensorShape": {"dim": [{"size": "3"}, {"size": "3"}, {"size": "256"}, {"size": "256"}]}}}, "dtype": {"type": "DT_FLOAT"}}}, {"name": "StatefulPartitionedCall/model_7/conv2d_153/Conv2D_bn_offset", "op": "Const", "attr": {"value": {"tensor": {"dtype": "DT_FLOAT", "tensorShape": {"dim": [{"size": "256"}]}}}, "dtype": {"type": "DT_FLOAT"}}}, {"name": "StatefulPartitionedCall/model_7/conv2d_154/Conv2D_weights", "op": "Const", "attr": {"value": {"tensor": {"dtype": "DT_FLOAT", "tensorShape": {"dim": [{"size": "3"}, {"size": "3"}, {"size": "256"}, {"size": "256"}]}}}, "dtype": {"type": "DT_FLOAT"}}}, {"name": "StatefulPartitionedCall/model_7/conv2d_154/Conv2D_bn_offset", "op": "Const", "attr": {"value": {"tensor": {"dtype": "DT_FLOAT", "tensorShape": {"dim": [{"size": "256"}]}}}, "dtype": {"type": "DT_FLOAT"}}}, {"name": "StatefulPartitionedCall/model_7/conv2d_157/Conv2D_weights", "op": "Const", "attr": {"value": {"tensor": {"dtype": "DT_FLOAT", "tensorShape": {"dim": [{"size": "1"}, {"size": "1"}, {"size": "256"}, {"size": "512"}]}}}, "dtype": {"type": "DT_FLOAT"}}}, {"name": "StatefulPartitionedCall/model_7/conv2d_157/Conv2D_bn_offset", "op": "Const", "attr": {"value": {"tensor": {"dtype": "DT_FLOAT", "tensorShape": {"dim": [{"size": "512"}]}}}, "dtype": {"type": "DT_FLOAT"}}}, {"name": "StatefulPartitionedCall/model_7/conv2d_155/Conv2D_weights", "op": "Const", "attr": {"value": {"tensor": {"dtype": "DT_FLOAT", "tensorShape": {"dim": [{"size": "3"}, {"size": "3"}, {"size": "256"}, {"size": "512"}]}}}, "dtype": {"type": "DT_FLOAT"}}}, {"name": "StatefulPartitionedCall/model_7/conv2d_155/Conv2D_bn_offset", "op": "Const", "attr": {"value": {"tensor": {"dtype": "DT_FLOAT", "tensorShape": {"dim": [{"size": "512"}]}}}, "dtype": {"type": "DT_FLOAT"}}}, {"name": "StatefulPartitionedCall/model_7/zero_padding2d_119/Pad", "op": "Pad", "input": ["args_0", "StatefulPartitionedCall/model_7/zero_padding2d_119/Pad/paddings"], "attr": {"Tpaddings": {"type": "DT_INT32"}, "T": {"type": "DT_FLOAT"}}}, {"name": "StatefulPartitionedCall/model_7/re_lu_63/Relu", "op": "_FusedConv2D", "input": ["StatefulPartitionedCall/model_7/zero_padding2d_119/Pad", "StatefulPartitionedCall/model_7/conv2d_140/Conv2D_weights", "StatefulPartitionedCall/model_7/conv2d_140/Conv2D_bn_offset"], "device": "/device:CPU:0", "attr": {"num_host_args": {"i": "0"}, "data_format": {"s": "TkhXQw=="}, "filter_format": {"s": "SFdJTw=="}, "fused_ops": {"list": {"s": ["Qmlhc0FkZA==", "UmVsdQ=="]}}, "num_args": {"i": "1"}, "strides": {"list": {"i": ["1", "2", "2", "1"]}}, "TArgs": {"list": {"type": ["DT_FLOAT"]}}, "padding": {"s": "VkFMSUQ="}, "use_cudnn_on_gpu": {"b": true}, "leakyrelu_alpha": {"f": 0.2}, "epsilon": {"f": 0.0}, "T": {"type": "DT_FLOAT"}, "explicit_paddings": {"list": {}}, "dilations": {"list": {"i": ["1", "1", "1", "1"]}}}}, {"name": "StatefulPartitionedCall/model_7/tf.compat.v1.pad_7/PadV2", "op": "PadV2", "input": ["StatefulPartitionedCall/model_7/re_lu_63/Relu", "StatefulPartitionedCall/model_7/tf.compat.v1.pad_7/PadV2/paddings", "StatefulPartitionedCall/model_7/tf.compat.v1.pad_7/PadV2/constant_values"], "attr": {"Tpaddings": {"type": "DT_INT32"}, "T": {"type": "DT_FLOAT"}}}, {"name": "StatefulPartitionedCall/model_7/max_pooling2d_7/MaxPool", "op": "MaxPool", "input": ["StatefulPartitionedCall/model_7/tf.compat.v1.pad_7/PadV2"], "attr": {"padding": {"s": "VkFMSUQ="}, "data_format": {"s": "TkhXQw=="}, "T": {"type": "DT_FLOAT"}, "explicit_paddings": {"list": {}}, "ksize": {"list": {"i": ["1", "3", "3", "1"]}}, "strides": {"list": {"i": ["1", "2", "2", "1"]}}}}, {"name": "StatefulPartitionedCall/model_7/zero_padding2d_120/Pad", "op": "Pad", "input": ["StatefulPartitionedCall/model_7/max_pooling2d_7/MaxPool", "StatefulPartitionedCall/model_7/zero_padding2d_120/Pad/paddings"], "attr": {"Tpaddings": {"type": "DT_INT32"}, "T": {"type": "DT_FLOAT"}}}, {"name": "StatefulPartitionedCall/model_7/re_lu_64/Relu", "op": "_FusedConv2D", "input": ["StatefulPartitionedCall/model_7/zero_padding2d_120/Pad", "StatefulPartitionedCall/model_7/conv2d_141/Conv2D_weights", "StatefulPartitionedCall/model_7/conv2d_141/Conv2D_bn_offset"], "device": "/device:CPU:0", "attr": {"num_host_args": {"i": "0"}, "data_format": {"s": "TkhXQw=="}, "filter_format": {"s": "SFdJTw=="}, "strides": {"list": {"i": ["1", "1", "1", "1"]}}, "num_args": {"i": "1"}, "fused_ops": {"list": {"s": ["Qmlhc0FkZA==", "UmVsdQ=="]}}, "TArgs": {"list": {"type": ["DT_FLOAT"]}}, "padding": {"s": "VkFMSUQ="}, "use_cudnn_on_gpu": {"b": true}, "leakyrelu_alpha": {"f": 0.2}, "epsilon": {"f": 0.0}, "T": {"type": "DT_FLOAT"}, "explicit_paddings": {"list": {}}, "dilations": {"list": {"i": ["1", "1", "1", "1"]}}}}, {"name": "StatefulPartitionedCall/model_7/zero_padding2d_121/Pad", "op": "Pad", "input": ["StatefulPartitionedCall/model_7/re_lu_64/Relu", "StatefulPartitionedCall/model_7/zero_padding2d_121/Pad/paddings"], "attr": {"Tpaddings": {"type": "DT_INT32"}, "T": {"type": "DT_FLOAT"}}}, {"name": "StatefulPartitionedCall/model_7/batch_normalization_142/FusedBatchNormV3", "op": "_FusedConv2D", "input": ["StatefulPartitionedCall/model_7/zero_padding2d_121/Pad", "StatefulPartitionedCall/model_7/conv2d_142/Conv2D_weights", "StatefulPartitionedCall/model_7/conv2d_142/Conv2D_bn_offset"], "device": "/device:CPU:0", "attr": {"num_host_args": {"i": "0"}, "data_format": {"s": "TkhXQw=="}, "filter_format": {"s": "SFdJTw=="}, "strides": {"list": {"i": ["1", "1", "1", "1"]}}, "num_args": {"i": "1"}, "fused_ops": {"list": {"s": ["Qmlhc0FkZA=="]}}, "TArgs": {"list": {"type": ["DT_FLOAT"]}}, "padding": {"s": "VkFMSUQ="}, "use_cudnn_on_gpu": {"b": true}, "leakyrelu_alpha": {"f": 0.2}, "epsilon": {"f": 0.0}, "T": {"type": "DT_FLOAT"}, "explicit_paddings": {"list": {}}, "dilations": {"list": {"i": ["1", "1", "1", "1"]}}}}, {"name": "StatefulPartitionedCall/model_7/tf.__operators__.add_56/AddV2", "op": "AddV2", "input": ["StatefulPartitionedCall/model_7/batch_normalization_142/FusedBatchNormV3", "StatefulPartitionedCall/model_7/max_pooling2d_7/MaxPool"], "attr": {"T": {"type": "DT_FLOAT"}}}, {"name": "StatefulPartitionedCall/model_7/re_lu_64/Relu_1", "op": "Relu", "input": ["StatefulPartitionedCall/model_7/tf.__operators__.add_56/AddV2"], "attr": {"T": {"type": "DT_FLOAT"}}}, {"name": "StatefulPartitionedCall/model_7/zero_padding2d_122/Pad", "op": "Pad", "input": ["StatefulPartitionedCall/model_7/re_lu_64/Relu_1", "StatefulPartitionedCall/model_7/zero_padding2d_122/Pad/paddings"], "attr": {"Tpaddings": {"type": "DT_INT32"}, "T": {"type": "DT_FLOAT"}}}, {"name": "StatefulPartitionedCall/model_7/re_lu_65/Relu", "op": "_FusedConv2D", "input": ["StatefulPartitionedCall/model_7/zero_padding2d_122/Pad", "StatefulPartitionedCall/model_7/conv2d_143/Conv2D_weights", "StatefulPartitionedCall/model_7/conv2d_143/Conv2D_bn_offset"], "device": "/device:CPU:0", "attr": {"num_host_args": {"i": "0"}, "data_format": {"s": "TkhXQw=="}, "filter_format": {"s": "SFdJTw=="}, "strides": {"list": {"i": ["1", "1", "1", "1"]}}, "num_args": {"i": "1"}, "fused_ops": {"list": {"s": ["Qmlhc0FkZA==", "UmVsdQ=="]}}, "TArgs": {"list": {"type": ["DT_FLOAT"]}}, "padding": {"s": "VkFMSUQ="}, "use_cudnn_on_gpu": {"b": true}, "leakyrelu_alpha": {"f": 0.2}, "epsilon": {"f": 0.0}, "T": {"type": "DT_FLOAT"}, "explicit_paddings": {"list": {}}, "dilations": {"list": {"i": ["1", "1", "1", "1"]}}}}, {"name": "StatefulPartitionedCall/model_7/zero_padding2d_123/Pad", "op": "Pad", "input": ["StatefulPartitionedCall/model_7/re_lu_65/Relu", "StatefulPartitionedCall/model_7/zero_padding2d_123/Pad/paddings"], "attr": {"Tpaddings": {"type": "DT_INT32"}, "T": {"type": "DT_FLOAT"}}}, {"name": "StatefulPartitionedCall/model_7/batch_normalization_144/FusedBatchNormV3", "op": "_FusedConv2D", "input": ["StatefulPartitionedCall/model_7/zero_padding2d_123/Pad", "StatefulPartitionedCall/model_7/conv2d_144/Conv2D_weights", "StatefulPartitionedCall/model_7/conv2d_144/Conv2D_bn_offset"], "device": "/device:CPU:0", "attr": {"num_host_args": {"i": "0"}, "data_format": {"s": "TkhXQw=="}, "filter_format": {"s": "SFdJTw=="}, "fused_ops": {"list": {"s": ["Qmlhc0FkZA=="]}}, "num_args": {"i": "1"}, "strides": {"list": {"i": ["1", "1", "1", "1"]}}, "TArgs": {"list": {"type": ["DT_FLOAT"]}}, "padding": {"s": "VkFMSUQ="}, "use_cudnn_on_gpu": {"b": true}, "leakyrelu_alpha": {"f": 0.2}, "epsilon": {"f": 0.0}, "T": {"type": "DT_FLOAT"}, "explicit_paddings": {"list": {}}, "dilations": {"list": {"i": ["1", "1", "1", "1"]}}}}, {"name": "StatefulPartitionedCall/model_7/tf.__operators__.add_57/AddV2", "op": "AddV2", "input": ["StatefulPartitionedCall/model_7/batch_normalization_144/FusedBatchNormV3", "StatefulPartitionedCall/model_7/re_lu_64/Relu_1"], "attr": {"T": {"type": "DT_FLOAT"}}}, {"name": "StatefulPartitionedCall/model_7/re_lu_65/Relu_1", "op": "Relu", "input": ["StatefulPartitionedCall/model_7/tf.__operators__.add_57/AddV2"], "attr": {"T": {"type": "DT_FLOAT"}}}, {"name": "StatefulPartitionedCall/model_7/zero_padding2d_124/Pad", "op": "Pad", "input": ["StatefulPartitionedCall/model_7/re_lu_65/Relu_1", "StatefulPartitionedCall/model_7/zero_padding2d_124/Pad/paddings"], "attr": {"Tpaddings": {"type": "DT_INT32"}, "T": {"type": "DT_FLOAT"}}}, {"name": "StatefulPartitionedCall/model_7/batch_normalization_147/FusedBatchNormV3", "op": "_FusedConv2D", "input": ["StatefulPartitionedCall/model_7/re_lu_65/Relu_1", "StatefulPartitionedCall/model_7/conv2d_147/Conv2D_weights", "StatefulPartitionedCall/model_7/conv2d_147/Conv2D_bn_offset"], "device": "/device:CPU:0", "attr": {"num_host_args": {"i": "0"}, "data_format": {"s": "TkhXQw=="}, "filter_format": {"s": "SFdJTw=="}, "fused_ops": {"list": {"s": ["Qmlhc0FkZA=="]}}, "num_args": {"i": "1"}, "strides": {"list": {"i": ["1", "2", "2", "1"]}}, "TArgs": {"list": {"type": ["DT_FLOAT"]}}, "padding": {"s": "VkFMSUQ="}, "use_cudnn_on_gpu": {"b": true}, "leakyrelu_alpha": {"f": 0.2}, "epsilon": {"f": 0.0}, "T": {"type": "DT_FLOAT"}, "explicit_paddings": {"list": {}}, "dilations": {"list": {"i": ["1", "1", "1", "1"]}}}}, {"name": "StatefulPartitionedCall/model_7/re_lu_66/Relu", "op": "_FusedConv2D", "input": ["StatefulPartitionedCall/model_7/zero_padding2d_124/Pad", "StatefulPartitionedCall/model_7/conv2d_145/Conv2D_weights", "StatefulPartitionedCall/model_7/conv2d_145/Conv2D_bn_offset"], "device": "/device:CPU:0", "attr": {"num_host_args": {"i": "0"}, "data_format": {"s": "TkhXQw=="}, "filter_format": {"s": "SFdJTw=="}, "fused_ops": {"list": {"s": ["Qmlhc0FkZA==", "UmVsdQ=="]}}, "num_args": {"i": "1"}, "strides": {"list": {"i": ["1", "2", "2", "1"]}}, "TArgs": {"list": {"type": ["DT_FLOAT"]}}, "padding": {"s": "VkFMSUQ="}, "use_cudnn_on_gpu": {"b": true}, "leakyrelu_alpha": {"f": 0.2}, "epsilon": {"f": 0.0}, "T": {"type": "DT_FLOAT"}, "explicit_paddings": {"list": {}}, "dilations": {"list": {"i": ["1", "1", "1", "1"]}}}}, {"name": "StatefulPartitionedCall/model_7/zero_padding2d_125/Pad", "op": "Pad", "input": ["StatefulPartitionedCall/model_7/re_lu_66/Relu", "StatefulPartitionedCall/model_7/zero_padding2d_125/Pad/paddings"], "attr": {"Tpaddings": {"type": "DT_INT32"}, "T": {"type": "DT_FLOAT"}}}, {"name": "StatefulPartitionedCall/model_7/batch_normalization_146/FusedBatchNormV3", "op": "_FusedConv2D", "input": ["StatefulPartitionedCall/model_7/zero_padding2d_125/Pad", "StatefulPartitionedCall/model_7/conv2d_146/Conv2D_weights", "StatefulPartitionedCall/model_7/conv2d_146/Conv2D_bn_offset"], "device": "/device:CPU:0", "attr": {"num_host_args": {"i": "0"}, "data_format": {"s": "TkhXQw=="}, "filter_format": {"s": "SFdJTw=="}, "strides": {"list": {"i": ["1", "1", "1", "1"]}}, "num_args": {"i": "1"}, "fused_ops": {"list": {"s": ["Qmlhc0FkZA=="]}}, "TArgs": {"list": {"type": ["DT_FLOAT"]}}, "padding": {"s": "VkFMSUQ="}, "use_cudnn_on_gpu": {"b": true}, "leakyrelu_alpha": {"f": 0.2}, "epsilon": {"f": 0.0}, "T": {"type": "DT_FLOAT"}, "explicit_paddings": {"list": {}}, "dilations": {"list": {"i": ["1", "1", "1", "1"]}}}}, {"name": "StatefulPartitionedCall/model_7/tf.__operators__.add_58/AddV2", "op": "AddV2", "input": ["StatefulPartitionedCall/model_7/batch_normalization_146/FusedBatchNormV3", "StatefulPartitionedCall/model_7/batch_normalization_147/FusedBatchNormV3"], "attr": {"T": {"type": "DT_FLOAT"}}}, {"name": "StatefulPartitionedCall/model_7/re_lu_66/Relu_1", "op": "Relu", "input": ["StatefulPartitionedCall/model_7/tf.__operators__.add_58/AddV2"], "attr": {"T": {"type": "DT_FLOAT"}}}, {"name": "StatefulPartitionedCall/model_7/zero_padding2d_126/Pad", "op": "Pad", "input": ["StatefulPartitionedCall/model_7/re_lu_66/Relu_1", "StatefulPartitionedCall/model_7/zero_padding2d_126/Pad/paddings"], "attr": {"Tpaddings": {"type": "DT_INT32"}, "T": {"type": "DT_FLOAT"}}}, {"name": "StatefulPartitionedCall/model_7/re_lu_67/Relu", "op": "_FusedConv2D", "input": ["StatefulPartitionedCall/model_7/zero_padding2d_126/Pad", "StatefulPartitionedCall/model_7/conv2d_148/Conv2D_weights", "StatefulPartitionedCall/model_7/conv2d_148/Conv2D_bn_offset"], "device": "/device:CPU:0", "attr": {"num_host_args": {"i": "0"}, "data_format": {"s": "TkhXQw=="}, "filter_format": {"s": "SFdJTw=="}, "fused_ops": {"list": {"s": ["Qmlhc0FkZA==", "UmVsdQ=="]}}, "num_args": {"i": "1"}, "strides": {"list": {"i": ["1", "1", "1", "1"]}}, "TArgs": {"list": {"type": ["DT_FLOAT"]}}, "padding": {"s": "VkFMSUQ="}, "use_cudnn_on_gpu": {"b": true}, "leakyrelu_alpha": {"f": 0.2}, "epsilon": {"f": 0.0}, "T": {"type": "DT_FLOAT"}, "explicit_paddings": {"list": {}}, "dilations": {"list": {"i": ["1", "1", "1", "1"]}}}}, {"name": "StatefulPartitionedCall/model_7/zero_padding2d_127/Pad", "op": "Pad", "input": ["StatefulPartitionedCall/model_7/re_lu_67/Relu", "StatefulPartitionedCall/model_7/zero_padding2d_127/Pad/paddings"], "attr": {"Tpaddings": {"type": "DT_INT32"}, "T": {"type": "DT_FLOAT"}}}, {"name": "StatefulPartitionedCall/model_7/batch_normalization_149/FusedBatchNormV3", "op": "_FusedConv2D", "input": ["StatefulPartitionedCall/model_7/zero_padding2d_127/Pad", "StatefulPartitionedCall/model_7/conv2d_149/Conv2D_weights", "StatefulPartitionedCall/model_7/conv2d_149/Conv2D_bn_offset"], "device": "/device:CPU:0", "attr": {"num_host_args": {"i": "0"}, "data_format": {"s": "TkhXQw=="}, "filter_format": {"s": "SFdJTw=="}, "fused_ops": {"list": {"s": ["Qmlhc0FkZA=="]}}, "num_args": {"i": "1"}, "strides": {"list": {"i": ["1", "1", "1", "1"]}}, "TArgs": {"list": {"type": ["DT_FLOAT"]}}, "padding": {"s": "VkFMSUQ="}, "use_cudnn_on_gpu": {"b": true}, "leakyrelu_alpha": {"f": 0.2}, "epsilon": {"f": 0.0}, "T": {"type": "DT_FLOAT"}, "explicit_paddings": {"list": {}}, "dilations": {"list": {"i": ["1", "1", "1", "1"]}}}}, {"name": "StatefulPartitionedCall/model_7/tf.__operators__.add_59/AddV2", "op": "AddV2", "input": ["StatefulPartitionedCall/model_7/batch_normalization_149/FusedBatchNormV3", "StatefulPartitionedCall/model_7/re_lu_66/Relu_1"], "attr": {"T": {"type": "DT_FLOAT"}}}, {"name": "StatefulPartitionedCall/model_7/re_lu_67/Relu_1", "op": "Relu", "input": ["StatefulPartitionedCall/model_7/tf.__operators__.add_59/AddV2"], "attr": {"T": {"type": "DT_FLOAT"}}}, {"name": "StatefulPartitionedCall/model_7/zero_padding2d_128/Pad", "op": "Pad", "input": ["StatefulPartitionedCall/model_7/re_lu_67/Relu_1", "StatefulPartitionedCall/model_7/zero_padding2d_128/Pad/paddings"], "attr": {"Tpaddings": {"type": "DT_INT32"}, "T": {"type": "DT_FLOAT"}}}, {"name": "StatefulPartitionedCall/model_7/batch_normalization_152/FusedBatchNormV3", "op": "_FusedConv2D", "input": ["StatefulPartitionedCall/model_7/re_lu_67/Relu_1", "StatefulPartitionedCall/model_7/conv2d_152/Conv2D_weights", "StatefulPartitionedCall/model_7/conv2d_152/Conv2D_bn_offset"], "device": "/device:CPU:0", "attr": {"num_host_args": {"i": "0"}, "data_format": {"s": "TkhXQw=="}, "filter_format": {"s": "SFdJTw=="}, "fused_ops": {"list": {"s": ["Qmlhc0FkZA=="]}}, "num_args": {"i": "1"}, "strides": {"list": {"i": ["1", "2", "2", "1"]}}, "TArgs": {"list": {"type": ["DT_FLOAT"]}}, "padding": {"s": "VkFMSUQ="}, "use_cudnn_on_gpu": {"b": true}, "leakyrelu_alpha": {"f": 0.2}, "epsilon": {"f": 0.0}, "T": {"type": "DT_FLOAT"}, "explicit_paddings": {"list": {}}, "dilations": {"list": {"i": ["1", "1", "1", "1"]}}}}, {"name": "StatefulPartitionedCall/model_7/re_lu_68/Relu", "op": "_FusedConv2D", "input": ["StatefulPartitionedCall/model_7/zero_padding2d_128/Pad", "StatefulPartitionedCall/model_7/conv2d_150/Conv2D_weights", "StatefulPartitionedCall/model_7/conv2d_150/Conv2D_bn_offset"], "device": "/device:CPU:0", "attr": {"num_host_args": {"i": "0"}, "data_format": {"s": "TkhXQw=="}, "filter_format": {"s": "SFdJTw=="}, "fused_ops": {"list": {"s": ["Qmlhc0FkZA==", "UmVsdQ=="]}}, "num_args": {"i": "1"}, "strides": {"list": {"i": ["1", "2", "2", "1"]}}, "TArgs": {"list": {"type": ["DT_FLOAT"]}}, "padding": {"s": "VkFMSUQ="}, "use_cudnn_on_gpu": {"b": true}, "leakyrelu_alpha": {"f": 0.2}, "epsilon": {"f": 0.0}, "T": {"type": "DT_FLOAT"}, "explicit_paddings": {"list": {}}, "dilations": {"list": {"i": ["1", "1", "1", "1"]}}}}, {"name": "StatefulPartitionedCall/model_7/zero_padding2d_129/Pad", "op": "Pad", "input": ["StatefulPartitionedCall/model_7/re_lu_68/Relu", "StatefulPartitionedCall/model_7/zero_padding2d_129/Pad/paddings"], "attr": {"Tpaddings": {"type": "DT_INT32"}, "T": {"type": "DT_FLOAT"}}}, {"name": "StatefulPartitionedCall/model_7/batch_normalization_151/FusedBatchNormV3", "op": "_FusedConv2D", "input": ["StatefulPartitionedCall/model_7/zero_padding2d_129/Pad", "StatefulPartitionedCall/model_7/conv2d_151/Conv2D_weights", "StatefulPartitionedCall/model_7/conv2d_151/Conv2D_bn_offset"], "device": "/device:CPU:0", "attr": {"num_host_args": {"i": "0"}, "data_format": {"s": "TkhXQw=="}, "filter_format": {"s": "SFdJTw=="}, "fused_ops": {"list": {"s": ["Qmlhc0FkZA=="]}}, "num_args": {"i": "1"}, "strides": {"list": {"i": ["1", "1", "1", "1"]}}, "TArgs": {"list": {"type": ["DT_FLOAT"]}}, "padding": {"s": "VkFMSUQ="}, "use_cudnn_on_gpu": {"b": true}, "leakyrelu_alpha": {"f": 0.2}, "epsilon": {"f": 0.0}, "T": {"type": "DT_FLOAT"}, "explicit_paddings": {"list": {}}, "dilations": {"list": {"i": ["1", "1", "1", "1"]}}}}, {"name": "StatefulPartitionedCall/model_7/tf.__operators__.add_60/AddV2", "op": "AddV2", "input": ["StatefulPartitionedCall/model_7/batch_normalization_151/FusedBatchNormV3", "StatefulPartitionedCall/model_7/batch_normalization_152/FusedBatchNormV3"], "attr": {"T": {"type": "DT_FLOAT"}}}, {"name": "StatefulPartitionedCall/model_7/re_lu_68/Relu_1", "op": "Relu", "input": ["StatefulPartitionedCall/model_7/tf.__operators__.add_60/AddV2"], "attr": {"T": {"type": "DT_FLOAT"}}}, {"name": "StatefulPartitionedCall/model_7/zero_padding2d_130/Pad", "op": "Pad", "input": ["StatefulPartitionedCall/model_7/re_lu_68/Relu_1", "StatefulPartitionedCall/model_7/zero_padding2d_130/Pad/paddings"], "attr": {"Tpaddings": {"type": "DT_INT32"}, "T": {"type": "DT_FLOAT"}}}, {"name": "StatefulPartitionedCall/model_7/re_lu_69/Relu", "op": "_FusedConv2D", "input": ["StatefulPartitionedCall/model_7/zero_padding2d_130/Pad", "StatefulPartitionedCall/model_7/conv2d_153/Conv2D_weights", "StatefulPartitionedCall/model_7/conv2d_153/Conv2D_bn_offset"], "device": "/device:CPU:0", "attr": {"num_host_args": {"i": "0"}, "data_format": {"s": "TkhXQw=="}, "filter_format": {"s": "SFdJTw=="}, "fused_ops": {"list": {"s": ["Qmlhc0FkZA==", "UmVsdQ=="]}}, "num_args": {"i": "1"}, "strides": {"list": {"i": ["1", "1", "1", "1"]}}, "TArgs": {"list": {"type": ["DT_FLOAT"]}}, "padding": {"s": "VkFMSUQ="}, "use_cudnn_on_gpu": {"b": true}, "leakyrelu_alpha": {"f": 0.2}, "epsilon": {"f": 0.0}, "T": {"type": "DT_FLOAT"}, "explicit_paddings": {"list": {}}, "dilations": {"list": {"i": ["1", "1", "1", "1"]}}}}, {"name": "StatefulPartitionedCall/model_7/zero_padding2d_131/Pad", "op": "Pad", "input": ["StatefulPartitionedCall/model_7/re_lu_69/Relu", "StatefulPartitionedCall/model_7/zero_padding2d_131/Pad/paddings"], "attr": {"Tpaddings": {"type": "DT_INT32"}, "T": {"type": "DT_FLOAT"}}}, {"name": "StatefulPartitionedCall/model_7/batch_normalization_154/FusedBatchNormV3", "op": "_FusedConv2D", "input": ["StatefulPartitionedCall/model_7/zero_padding2d_131/Pad", "StatefulPartitionedCall/model_7/conv2d_154/Conv2D_weights", "StatefulPartitionedCall/model_7/conv2d_154/Conv2D_bn_offset"], "device": "/device:CPU:0", "attr": {"num_host_args": {"i": "0"}, "data_format": {"s": "TkhXQw=="}, "filter_format": {"s": "SFdJTw=="}, "strides": {"list": {"i": ["1", "1", "1", "1"]}}, "num_args": {"i": "1"}, "fused_ops": {"list": {"s": ["Qmlhc0FkZA=="]}}, "TArgs": {"list": {"type": ["DT_FLOAT"]}}, "padding": {"s": "VkFMSUQ="}, "use_cudnn_on_gpu": {"b": true}, "leakyrelu_alpha": {"f": 0.2}, "epsilon": {"f": 0.0}, "T": {"type": "DT_FLOAT"}, "explicit_paddings": {"list": {}}, "dilations": {"list": {"i": ["1", "1", "1", "1"]}}}}, {"name": "StatefulPartitionedCall/model_7/tf.__operators__.add_61/AddV2", "op": "AddV2", "input": ["StatefulPartitionedCall/model_7/batch_normalization_154/FusedBatchNormV3", "StatefulPartitionedCall/model_7/re_lu_68/Relu_1"], "attr": {"T": {"type": "DT_FLOAT"}}}, {"name": "StatefulPartitionedCall/model_7/re_lu_69/Relu_1", "op": "Relu", "input": ["StatefulPartitionedCall/model_7/tf.__operators__.add_61/AddV2"], "attr": {"T": {"type": "DT_FLOAT"}}}, {"name": "StatefulPartitionedCall/model_7/zero_padding2d_132/Pad", "op": "Pad", "input": ["StatefulPartitionedCall/model_7/re_lu_69/Relu_1", "StatefulPartitionedCall/model_7/zero_padding2d_132/Pad/paddings"], "attr": {"Tpaddings": {"type": "DT_INT32"}, "T": {"type": "DT_FLOAT"}}}, {"name": "StatefulPartitionedCall/model_7/batch_normalization_157/FusedBatchNormV3", "op": "_FusedConv2D", "input": ["StatefulPartitionedCall/model_7/re_lu_69/Relu_1", "StatefulPartitionedCall/model_7/conv2d_157/Conv2D_weights", "StatefulPartitionedCall/model_7/conv2d_157/Conv2D_bn_offset"], "device": "/device:CPU:0", "attr": {"num_host_args": {"i": "0"}, "data_format": {"s": "TkhXQw=="}, "filter_format": {"s": "SFdJTw=="}, "strides": {"list": {"i": ["1", "2", "2", "1"]}}, "num_args": {"i": "1"}, "fused_ops": {"list": {"s": ["Qmlhc0FkZA=="]}}, "TArgs": {"list": {"type": ["DT_FLOAT"]}}, "padding": {"s": "VkFMSUQ="}, "use_cudnn_on_gpu": {"b": true}, "leakyrelu_alpha": {"f": 0.2}, "epsilon": {"f": 0.0}, "T": {"type": "DT_FLOAT"}, "explicit_paddings": {"list": {}}, "dilations": {"list": {"i": ["1", "1", "1", "1"]}}}}, {"name": "StatefulPartitionedCall/model_7/re_lu_70/Relu", "op": "_FusedConv2D", "input": ["StatefulPartitionedCall/model_7/zero_padding2d_132/Pad", "StatefulPartitionedCall/model_7/conv2d_155/Conv2D_weights", "StatefulPartitionedCall/model_7/conv2d_155/Conv2D_bn_offset"], "device": "/device:CPU:0", "attr": {"num_host_args": {"i": "0"}, "data_format": {"s": "TkhXQw=="}, "filter_format": {"s": "SFdJTw=="}, "fused_ops": {"list": {"s": ["Qmlhc0FkZA==", "UmVsdQ=="]}}, "num_args": {"i": "1"}, "strides": {"list": {"i": ["1", "2", "2", "1"]}}, "TArgs": {"list": {"type": ["DT_FLOAT"]}}, "padding": {"s": "VkFMSUQ="}, "use_cudnn_on_gpu": {"b": true}, "leakyrelu_alpha": {"f": 0.2}, "epsilon": {"f": 0.0}, "T": {"type": "DT_FLOAT"}, "explicit_paddings": {"list": {}}, "dilations": {"list": {"i": ["1", "1", "1", "1"]}}}}, {"name": "StatefulPartitionedCall/model_7/zero_padding2d_133/Pad", "op": "Pad", "input": ["StatefulPartitionedCall/model_7/re_lu_70/Relu", "StatefulPartitionedCall/model_7/zero_padding2d_133/Pad/paddings"], "attr": {"Tpaddings": {"type": "DT_INT32"}, "T": {"type": "DT_FLOAT"}}}, {"name": "StatefulPartitionedCall/model_7/batch_normalization_156/FusedBatchNormV3", "op": "_FusedConv2D", "input": ["StatefulPartitionedCall/model_7/zero_padding2d_133/Pad", "StatefulPartitionedCall/model_7/conv2d_156/Conv2D_weights", "StatefulPartitionedCall/model_7/conv2d_156/Conv2D_bn_offset"], "device": "/device:CPU:0", "attr": {"num_host_args": {"i": "0"}, "data_format": {"s": "TkhXQw=="}, "filter_format": {"s": "SFdJTw=="}, "strides": {"list": {"i": ["1", "1", "1", "1"]}}, "num_args": {"i": "1"}, "fused_ops": {"list": {"s": ["Qmlhc0FkZA=="]}}, "TArgs": {"list": {"type": ["DT_FLOAT"]}}, "padding": {"s": "VkFMSUQ="}, "use_cudnn_on_gpu": {"b": true}, "leakyrelu_alpha": {"f": 0.2}, "epsilon": {"f": 0.0}, "T": {"type": "DT_FLOAT"}, "explicit_paddings": {"list": {}}, "dilations": {"list": {"i": ["1", "1", "1", "1"]}}}}, {"name": "StatefulPartitionedCall/model_7/tf.__operators__.add_62/AddV2", "op": "AddV2", "input": ["StatefulPartitionedCall/model_7/batch_normalization_156/FusedBatchNormV3", "StatefulPartitionedCall/model_7/batch_normalization_157/FusedBatchNormV3"], "attr": {"T": {"type": "DT_FLOAT"}}}, {"name": "StatefulPartitionedCall/model_7/re_lu_70/Relu_1", "op": "Relu", "input": ["StatefulPartitionedCall/model_7/tf.__operators__.add_62/AddV2"], "attr": {"T": {"type": "DT_FLOAT"}}}, {"name": "StatefulPartitionedCall/model_7/zero_padding2d_134/Pad", "op": "Pad", "input": ["StatefulPartitionedCall/model_7/re_lu_70/Relu_1", "StatefulPartitionedCall/model_7/zero_padding2d_134/Pad/paddings"], "attr": {"Tpaddings": {"type": "DT_INT32"}, "T": {"type": "DT_FLOAT"}}}, {"name": "StatefulPartitionedCall/model_7/re_lu_71/Relu", "op": "_FusedConv2D", "input": ["StatefulPartitionedCall/model_7/zero_padding2d_134/Pad", "StatefulPartitionedCall/model_7/conv2d_158/Conv2D_weights", "StatefulPartitionedCall/model_7/conv2d_158/Conv2D_bn_offset"], "device": "/device:CPU:0", "attr": {"num_host_args": {"i": "0"}, "data_format": {"s": "TkhXQw=="}, "filter_format": {"s": "SFdJTw=="}, "strides": {"list": {"i": ["1", "1", "1", "1"]}}, "num_args": {"i": "1"}, "fused_ops": {"list": {"s": ["Qmlhc0FkZA==", "UmVsdQ=="]}}, "TArgs": {"list": {"type": ["DT_FLOAT"]}}, "padding": {"s": "VkFMSUQ="}, "use_cudnn_on_gpu": {"b": true}, "leakyrelu_alpha": {"f": 0.2}, "epsilon": {"f": 0.0}, "T": {"type": "DT_FLOAT"}, "explicit_paddings": {"list": {}}, "dilations": {"list": {"i": ["1", "1", "1", "1"]}}}}, {"name": "StatefulPartitionedCall/model_7/zero_padding2d_135/Pad", "op": "Pad", "input": ["StatefulPartitionedCall/model_7/re_lu_71/Relu", "StatefulPartitionedCall/model_7/zero_padding2d_135/Pad/paddings"], "attr": {"Tpaddings": {"type": "DT_INT32"}, "T": {"type": "DT_FLOAT"}}}, {"name": "StatefulPartitionedCall/model_7/batch_normalization_159/FusedBatchNormV3", "op": "_FusedConv2D", "input": ["StatefulPartitionedCall/model_7/zero_padding2d_135/Pad", "StatefulPartitionedCall/model_7/conv2d_159/Conv2D_weights", "StatefulPartitionedCall/model_7/conv2d_159/Conv2D_bn_offset"], "device": "/device:CPU:0", "attr": {"num_host_args": {"i": "0"}, "data_format": {"s": "TkhXQw=="}, "filter_format": {"s": "SFdJTw=="}, "strides": {"list": {"i": ["1", "1", "1", "1"]}}, "num_args": {"i": "1"}, "fused_ops": {"list": {"s": ["Qmlhc0FkZA=="]}}, "TArgs": {"list": {"type": ["DT_FLOAT"]}}, "padding": {"s": "VkFMSUQ="}, "use_cudnn_on_gpu": {"b": true}, "leakyrelu_alpha": {"f": 0.2}, "epsilon": {"f": 0.0}, "T": {"type": "DT_FLOAT"}, "explicit_paddings": {"list": {}}, "dilations": {"list": {"i": ["1", "1", "1", "1"]}}}}, {"name": "StatefulPartitionedCall/model_7/tf.__operators__.add_63/AddV2", "op": "AddV2", "input": ["StatefulPartitionedCall/model_7/batch_normalization_159/FusedBatchNormV3", "StatefulPartitionedCall/model_7/re_lu_70/Relu_1"], "attr": {"T": {"type": "DT_FLOAT"}}}, {"name": "StatefulPartitionedCall/model_7/re_lu_71/Relu_1", "op": "Relu", "input": ["StatefulPartitionedCall/model_7/tf.__operators__.add_63/AddV2"], "attr": {"T": {"type": "DT_FLOAT"}}}, {"name": "StatefulPartitionedCall/model_7/global_average_pooling2d_39/Mean", "op": "Mean", "input": ["StatefulPartitionedCall/model_7/re_lu_71/Relu_1", "StatefulPartitionedCall/model_7/global_average_pooling2d_39/Mean/reduction_indices"], "attr": {"T": {"type": "DT_FLOAT"}, "Tidx": {"type": "DT_INT32"}, "keep_dims": {"b": true}}}, {"name": "StatefulPartitionedCall/model_7/tf.compat.v1.transpose_7/transpose", "op": "Transpose", "input": ["StatefulPartitionedCall/model_7/global_average_pooling2d_39/Mean", "StatefulPartitionedCall/model_7/tf.compat.v1.transpose_7/transpose/perm"], "attr": {"Tperm": {"type": "DT_INT32"}, "T": {"type": "DT_FLOAT"}}}, {"name": "StatefulPartitionedCall/model_7/tf.reshape_7/Reshape", "op": "Reshape", "input": ["StatefulPartitionedCall/model_7/tf.compat.v1.transpose_7/transpose", "StatefulPartitionedCall/model_7/tf.reshape_7/Reshape/shape"], "attr": {"T": {"type": "DT_FLOAT"}, "Tshape": {"type": "DT_INT32"}}}, {"name": "StatefulPartitionedCall/model_7/tf.nn.relu_7/Relu", "op": "_FusedMatMul", "input": ["StatefulPartitionedCall/model_7/tf.reshape_7/Reshape", "StatefulPartitionedCall/model_7/dense_21/MatMul/ReadVariableOp", "StatefulPartitionedCall/model_7/dense_21/BiasAdd/ReadVariableOp"], "device": "/device:CPU:0", "attr": {"transpose_a": {"b": false}, "transpose_b": {"b": false}, "fused_ops": {"list": {"s": ["Qmlhc0FkZA==", "UmVsdQ=="]}}, "leakyrelu_alpha": {"f": 0.2}, "num_args": {"i": "1"}, "epsilon": {"f": 0.0}, "T": {"type": "DT_FLOAT"}}}, {"name": "StatefulPartitionedCall/model_7/dense_23/BiasAdd", "op": "_FusedMatMul", "input": ["StatefulPartitionedCall/model_7/tf.nn.relu_7/Relu", "StatefulPartitionedCall/model_7/dense_23/MatMul/ReadVariableOp", "StatefulPartitionedCall/model_7/dense_23/BiasAdd/ReadVariableOp"], "device": "/device:CPU:0", "attr": {"transpose_a": {"b": false}, "transpose_b": {"b": false}, "fused_ops": {"list": {"s": ["Qmlhc0FkZA=="]}}, "num_args": {"i": "1"}, "leakyrelu_alpha": {"f": 0.2}, "epsilon": {"f": 0.0}, "T": {"type": "DT_FLOAT"}}}, {"name": "StatefulPartitionedCall/model_7/dense_22/BiasAdd", "op": "_FusedMatMul", "input": ["StatefulPartitionedCall/model_7/tf.nn.relu_7/Relu", "StatefulPartitionedCall/model_7/dense_22/MatMul/ReadVariableOp", "StatefulPartitionedCall/model_7/dense_22/BiasAdd/ReadVariableOp"], "device": "/device:CPU:0", "attr": {"transpose_a": {"b": false}, "transpose_b": {"b": false}, "fused_ops": {"list": {"s": ["Qmlhc0FkZA=="]}}, "leakyrelu_alpha": {"f": 0.2}, "num_args": {"i": "1"}, "epsilon": {"f": 0.0}, "T": {"type": "DT_FLOAT"}}}, {"name": "Identity_1", "op": "Identity", "input": ["StatefulPartitionedCall/model_7/dense_23/BiasAdd"], "attr": {"T": {"type": "DT_FLOAT"}}}, {"name": "Identity", "op": "Identity", "input": ["StatefulPartitionedCall/model_7/dense_22/BiasAdd"], "attr": {"T": {"type": "DT_FLOAT"}}}], "library": {}, "versions": {"producer": 1645}}, "weightsManifest": [{"paths": ["group1-shard1of3.bin", "group1-shard2of3.bin", "group1-shard3of3.bin"], "weights": [{"name": "StatefulPartitionedCall/model_7/dense_22/MatMul/ReadVariableOp", "shape": [128, 5], "dtype": "float32", "quantization": {"dtype": "uint8", "min": -0.3612841000743941, "scale": 0.002599166187585569, "original_dtype": "float32"}}, {"name": "StatefulPartitionedCall/model_7/dense_22/BiasAdd/ReadVariableOp", "shape": [5], "dtype": "float32", "quantization": {"dtype": "uint8", "min": -0.10809070178691078, "scale": 0.0008787861933895186, "original_dtype": "float32"}}, {"name": "StatefulPartitionedCall/model_7/zero_padding2d_134/Pad/paddings", "shape": [4, 2], "dtype": "int32"}, {"name": "StatefulPartitionedCall/model_7/zero_padding2d_135/Pad/paddings", "shape": [4, 2], "dtype": "int32"}, {"name": "StatefulPartitionedCall/model_7/zero_padding2d_132/Pad/paddings", "shape": [4, 2], "dtype": "int32"}, {"name": "StatefulPartitionedCall/model_7/zero_padding2d_133/Pad/paddings", "shape": [4, 2], "dtype": "int32"}, {"name": "StatefulPartitionedCall/model_7/zero_padding2d_130/Pad/paddings", "shape": [4, 2], "dtype": "int32"}, {"name": "StatefulPartitionedCall/model_7/zero_padding2d_131/Pad/paddings", "shape": [4, 2], "dtype": "int32"}, {"name": "StatefulPartitionedCall/model_7/zero_padding2d_128/Pad/paddings", "shape": [4, 2], "dtype": "int32"}, {"name": "StatefulPartitionedCall/model_7/zero_padding2d_129/Pad/paddings", "shape": [4, 2], "dtype": "int32"}, {"name": "StatefulPartitionedCall/model_7/zero_padding2d_126/Pad/paddings", "shape": [4, 2], "dtype": "int32"}, {"name": "StatefulPartitionedCall/model_7/zero_padding2d_127/Pad/paddings", "shape": [4, 2], "dtype": "int32"}, {"name": "StatefulPartitionedCall/model_7/zero_padding2d_124/Pad/paddings", "shape": [4, 2], "dtype": "int32"}, {"name": "StatefulPartitionedCall/model_7/zero_padding2d_125/Pad/paddings", "shape": [4, 2], "dtype": "int32"}, {"name": "StatefulPartitionedCall/model_7/zero_padding2d_122/Pad/paddings", "shape": [4, 2], "dtype": "int32"}, {"name": "StatefulPartitionedCall/model_7/zero_padding2d_123/Pad/paddings", "shape": [4, 2], "dtype": "int32"}, {"name": "StatefulPartitionedCall/model_7/zero_padding2d_120/Pad/paddings", "shape": [4, 2], "dtype": "int32"}, {"name": "StatefulPartitionedCall/model_7/zero_padding2d_121/Pad/paddings", "shape": [4, 2], "dtype": "int32"}, {"name": "StatefulPartitionedCall/model_7/zero_padding2d_119/Pad/paddings", "shape": [4, 2], "dtype": "int32"}, {"name": "StatefulPartitionedCall/model_7/tf.compat.v1.pad_7/PadV2/paddings", "shape": [4, 2], "dtype": "int32"}, {"name": "StatefulPartitionedCall/model_7/tf.compat.v1.pad_7/PadV2/constant_values", "shape": [], "dtype": "float32", "quantization": {"dtype": "uint8", "min": -Infinity, "scale": 1.0, "original_dtype": "float32"}}, {"name": "StatefulPartitionedCall/model_7/global_average_pooling2d_39/Mean/reduction_indices", "shape": [2], "dtype": "int32"}, {"name": "StatefulPartitionedCall/model_7/tf.compat.v1.transpose_7/transpose/perm", "shape": [4], "dtype": "int32"}, {"name": "StatefulPartitionedCall/model_7/tf.reshape_7/Reshape/shape", "shape": [2], "dtype": "int32"}, {"name": "StatefulPartitionedCall/model_7/dense_21/MatMul/ReadVariableOp", "shape": [512, 128], "dtype": "float32", "quantization": {"dtype": "uint8", "min": -1.4300909061057896, "scale": 0.008720066500645059, "original_dtype": "float32"}}, {"name": "StatefulPartitionedCall/model_7/dense_21/BiasAdd/ReadVariableOp", "shape": [128], "dtype": "float32", "quantization": {"dtype": "uint8", "min": -0.17058351618402143, "scale": 0.001656150642563315, "original_dtype": "float32"}}, {"name": "StatefulPartitionedCall/model_7/dense_23/MatMul/ReadVariableOp", "shape": [128, 4], "dtype": "float32", "quantization": {"dtype": "uint8", "min": -1.3223303402171416, "scale": 0.013774274377261891, "original_dtype": "float32"}}, {"name": "StatefulPartitionedCall/model_7/dense_23/BiasAdd/ReadVariableOp", "shape": [4], "dtype": "float32", "quantization": {"dtype": "uint8", "min": -0.21413014583727893, "scale": 0.0057873012388453765, "original_dtype": "float32"}}, {"name": "StatefulPartitionedCall/model_7/conv2d_140/Conv2D_weights", "shape": [7, 7, 3, 64], "dtype": "float32", "quantization": {"dtype": "uint8", "min": -0.3974692320122438, "scale": 0.003397172923181571, "original_dtype": "float32"}}, {"name": "StatefulPartitionedCall/model_7/conv2d_140/Conv2D_bn_offset", "shape": [64], "dtype": "float32", "quantization": {"dtype": "uint8", "min": -0.731798020063662, "scale": 0.007544309485192392, "original_dtype": "float32"}}, {"name": "StatefulPartitionedCall/model_7/conv2d_141/Conv2D_weights", "shape": [3, 3, 64, 64], "dtype": "float32", "quantization": {"dtype": "uint8", "min": -0.22148909580473808, "scale": 0.001690756456524718, "original_dtype": "float32"}}, {"name": "StatefulPartitionedCall/model_7/conv2d_156/Conv2D_weights", "shape": [3, 3, 512, 512], "dtype": "float32", "quantization": {"dtype": "uint8", "min": -0.22478557474472943, "scale": 0.0015610109357272878, "original_dtype": "float32"}}, {"name": "StatefulPartitionedCall/model_7/conv2d_141/Conv2D_bn_offset", "shape": [64], "dtype": "float32", "quantization": {"dtype": "uint8", "min": -1.1686559985665714, "scale": 0.011130057129205442, "original_dtype": "float32"}}, {"name": "StatefulPartitionedCall/model_7/conv2d_142/Conv2D_weights", "shape": [3, 3, 64, 64], "dtype": "float32", "quantization": {"dtype": "uint8", "min": -0.45474025922663075, "scale": 0.003225108221465466, "original_dtype": "float32"}}, {"name": "StatefulPartitionedCall/model_7/conv2d_156/Conv2D_bn_offset", "shape": [512], "dtype": "float32", "quantization": {"dtype": "uint8", "min": -0.804003895965277, "scale": 0.007514055102479224, "original_dtype": "float32"}}, {"name": "StatefulPartitionedCall/model_7/conv2d_142/Conv2D_bn_offset", "shape": [64], "dtype": "float32", "quantization": {"dtype": "uint8", "min": -0.7993331584275938, "scale": 0.007760516101238775, "original_dtype": "float32"}}, {"name": "StatefulPartitionedCall/model_7/conv2d_143/Conv2D_weights", "shape": [3, 3, 64, 64], "dtype": "float32", "quantization": {"dtype": "uint8", "min": -0.20190936151672811, "scale": 0.001382940832306357, "original_dtype": "float32"}}, {"name": "StatefulPartitionedCall/model_7/conv2d_143/Conv2D_bn_offset", "shape": [64], "dtype": "float32", "quantization": {"dtype": "uint8", "min": -0.8544612344573526, "scale": 0.006946839304531322, "original_dtype": "float32"}}, {"name": "StatefulPartitionedCall/model_7/conv2d_144/Conv2D_weights", "shape": [3, 3, 64, 64], "dtype": "float32", "quantization": {"dtype": "uint8", "min": -0.4584167746936573, "scale": 0.0032511827992457967, "original_dtype": "float32"}}, {"name": "StatefulPartitionedCall/model_7/conv2d_144/Conv2D_bn_offset", "shape": [64], "dtype": "float32", "quantization": {"dtype": "uint8", "min": -0.6926152909503264, "scale": 0.007447476246777703, "original_dtype": "float32"}}, {"name": "StatefulPartitionedCall/model_7/conv2d_147/Conv2D_weights", "shape": [1, 1, 64, 128], "dtype": "float32", "quantization": {"dtype": "uint8", "min": -0.6154253838109035, "scale": 0.005646104438632143, "original_dtype": "float32"}}, {"name": "StatefulPartitionedCall/model_7/conv2d_147/Conv2D_bn_offset", "shape": [128], "dtype": "float32", "quantization": {"dtype": "uint8", "min": -1.2930894215901694, "scale": 0.009508010452868892, "original_dtype": "float32"}}, {"name": "StatefulPartitionedCall/model_7/conv2d_145/Conv2D_weights", "shape": [3, 3, 64, 128], "dtype": "float32", "quantization": {"dtype": "uint8", "min": -0.10303573240252102, "scale": 0.0007466357420472538, "original_dtype": "float32"}}, {"name": "StatefulPartitionedCall/model_7/conv2d_158/Conv2D_weights", "shape": [3, 3, 512, 512], "dtype": "float32", "quantization": {"dtype": "uint8", "min": -0.05687289728837855, "scale": 0.0004212807206546559, "original_dtype": "float32"}}, {"name": "StatefulPartitionedCall/model_7/conv2d_145/Conv2D_bn_offset", "shape": [128], "dtype": "float32", "quantization": {"dtype": "uint8", "min": -0.6059118588765462, "scale": 0.004455234256445193, "original_dtype": "float32"}}, {"name": "StatefulPartitionedCall/model_7/conv2d_146/Conv2D_weights", "shape": [3, 3, 128, 128], "dtype": "float32", "quantization": {"dtype": "uint8", "min": -0.2738797748790068, "scale": 0.0023610325420604034, "original_dtype": "float32"}}, {"name": "StatefulPartitionedCall/model_7/conv2d_158/Conv2D_bn_offset", "shape": [512], "dtype": "float32", "quantization": {"dtype": "uint8", "min": -0.6962148722480325, "scale": 0.005045035306145163, "original_dtype": "float32"}}, {"name": "StatefulPartitionedCall/model_7/conv2d_146/Conv2D_bn_offset", "shape": [128], "dtype": "float32", "quantization": {"dtype": "uint8", "min": -0.5285099807907553, "scale": 0.007239862750558292, "original_dtype": "float32"}}, {"name": "StatefulPartitionedCall/model_7/conv2d_148/Conv2D_weights", "shape": [3, 3, 128, 128], "dtype": "float32", "quantization": {"dtype": "uint8", "min": -0.11442027290662131, "scale": 0.0009615148983749689, "original_dtype": "float32"}}, {"name": "StatefulPartitionedCall/model_7/conv2d_148/Conv2D_bn_offset", "shape": [128], "dtype": "float32", "quantization": {"dtype": "uint8", "min": -1.0555292868146708, "scale": 0.01287230837578867, "original_dtype": "float32"}}, {"name": "StatefulPartitionedCall/model_7/conv2d_149/Conv2D_weights", "shape": [3, 3, 128, 128], "dtype": "float32", "quantization": {"dtype": "uint8", "min": -0.18294575635124655, "scale": 0.001306755402508904, "original_dtype": "float32"}}, {"name": "StatefulPartitionedCall/model_7/conv2d_149/Conv2D_bn_offset", "shape": [128], "dtype": "float32", "quantization": {"dtype": "uint8", "min": -0.643441874256321, "scale": 0.0040983558869829365, "original_dtype": "float32"}}, {"name": "StatefulPartitionedCall/model_7/conv2d_152/Conv2D_weights", "shape": [1, 1, 128, 256], "dtype": "float32", "quantization": {"dtype": "uint8", "min": -0.25642330740012376, "scale": 0.0025642330740012374, "original_dtype": "float32"}}, {"name": "StatefulPartitionedCall/model_7/conv2d_159/Conv2D_weights", "shape": [3, 3, 512, 512], "dtype": "float32", "quantization": {"dtype": "uint8", "min": -1.13188610310648, "scale": 0.008143065489974677, "original_dtype": "float32"}}, {"name": "StatefulPartitionedCall/model_7/conv2d_152/Conv2D_bn_offset", "shape": [256], "dtype": "float32", "quantization": {"dtype": "uint8", "min": -0.5423775132964639, "scale": 0.0038195599527919995, "original_dtype": "float32"}}, {"name": "StatefulPartitionedCall/model_7/conv2d_150/Conv2D_weights", "shape": [3, 3, 128, 256], "dtype": "float32", "quantization": {"dtype": "uint8", "min": -0.10443007478526994, "scale": 0.0010656130080129585, "original_dtype": "float32"}}, {"name": "StatefulPartitionedCall/model_7/conv2d_150/Conv2D_bn_offset", "shape": [256], "dtype": "float32", "quantization": {"dtype": "uint8", "min": -0.6692377314848058, "scale": 0.005975336888257195, "original_dtype": "float32"}}, {"name": "StatefulPartitionedCall/model_7/conv2d_159/Conv2D_bn_offset", "shape": [512], "dtype": "float32", "quantization": {"dtype": "uint8", "min": -4.019669824488023, "scale": 0.031160231197581573, "original_dtype": "float32"}}, {"name": "StatefulPartitionedCall/model_7/conv2d_151/Conv2D_weights", "shape": [3, 3, 256, 256], "dtype": "float32", "quantization": {"dtype": "uint8", "min": -0.23042644589555028, "scale": 0.0017725111222734638, "original_dtype": "float32"}}, {"name": "StatefulPartitionedCall/model_7/conv2d_151/Conv2D_bn_offset", "shape": [256], "dtype": "float32", "quantization": {"dtype": "uint8", "min": -0.4894656714271096, "scale": 0.004256223229800953, "original_dtype": "float32"}}, {"name": "StatefulPartitionedCall/model_7/conv2d_153/Conv2D_weights", "shape": [3, 3, 256, 256], "dtype": "float32", "quantization": {"dtype": "uint8", "min": -0.08727719485759736, "scale": 0.0005704391820757997, "original_dtype": "float32"}}, {"name": "StatefulPartitionedCall/model_7/conv2d_153/Conv2D_bn_offset", "shape": [256], "dtype": "float32", "quantization": {"dtype": "uint8", "min": -1.701574659347534, "scale": 0.013504560788472493, "original_dtype": "float32"}}, {"name": "StatefulPartitionedCall/model_7/conv2d_154/Conv2D_weights", "shape": [3, 3, 256, 256], "dtype": "float32", "quantization": {"dtype": "uint8", "min": -0.2397189144702519, "scale": 0.0013244138921008391, "original_dtype": "float32"}}, {"name": "StatefulPartitionedCall/model_7/conv2d_154/Conv2D_bn_offset", "shape": [256], "dtype": "float32", "quantization": {"dtype": "uint8", "min": -0.6601481304449194, "scale": 0.005117427367790073, "original_dtype": "float32"}}, {"name": "StatefulPartitionedCall/model_7/conv2d_157/Conv2D_weights", "shape": [1, 1, 256, 512], "dtype": "float32", "quantization": {"dtype": "uint8", "min": -0.488670231664882, "scale": 0.003370139528723324, "original_dtype": "float32"}}, {"name": "StatefulPartitionedCall/model_7/conv2d_157/Conv2D_bn_offset", "shape": [512], "dtype": "float32", "quantization": {"dtype": "uint8", "min": -0.6724728836732752, "scale": 0.00800562956753899, "original_dtype": "float32"}}, {"name": "StatefulPartitionedCall/model_7/conv2d_155/Conv2D_weights", "shape": [3, 3, 256, 512], "dtype": "float32", "quantization": {"dtype": "uint8", "min": -0.10667218227012484, "scale": 0.0008333764239853503, "original_dtype": "float32"}}, {"name": "StatefulPartitionedCall/model_7/conv2d_155/Conv2D_bn_offset", "shape": [512], "dtype": "float32", "quantization": {"dtype": "uint8", "min": -0.7116982403923483, "scale": 0.005833592134363511, "original_dtype": "float32"}}]}]}